models/transfomer_weights/best_model_20epoch_su.pth (torch, 33323 bytes, 23 tensors)

weight f4 [256, 1]
00000000: 1d7c a83b d487 863c 5726 fd3b e081 053c
00000010: 2267 e7bc b8a0 22bc 1876 5939 a27d ec3c
00000020: 7eda 00bd ddb2 1cbc 3b93 353d 9321 a939
00000030: cc70 6537 7ba9 c93b 7b9b d03b a817 0cbd
00000040: bb14 f3bc b2e8 2fbc 8e13 3e3b ec24 6fbc
00000050: 75bc dd3a 594f ed3b d65b 813b f837 dfbb
00000060: ac1a efbc f47c b4bc 71ca 833c bff1 14bc
00000070: e29a b63c 1176 8ebb 52e3 f13c 20ea 80bc
00000080: 673b 8e3b 6ba2 3bbb 999f 683c f1d5 17bd
00000090: cc8b f63b 8fd5 2d3c 618e 47bd e10b 35bc
000000a0: 3c88 ab3c 1f3b 873c a7b2 50bc 563b 963b
000000b0: a6a6 2bbd bb4a ae3c b998 9bbc 19e1 b83c
000000c0: 1972 cf3c 4706 0b3d e790 bf3c 19e5 d8bb
000000d0: 14da 0dbd d5d8 9dbb 5cc8 e63b c6e1 463b
000000e0: 0122 cfbc 8d0a a23c 5934 b23c 3ac9 9abc
000000f0: 9edc 36bd d2e1 183d e18d 15bc b4e7 debb
00000100: 0e46 363c 196b c6bc 041b dc3c dadc 9bbc
00000110: 5bf1 d13c 27bd dfbc b7b2 263b f94c 7cbc
00000120: 87ee cfbc 47f8 34bc 82a0 37bd 54b3 313c
00000130: fe96 b53c 3b25 ddbc 19c7 e8bc cddf c8bb
00000140: 181b 52bc a1b4 99bc d03c 11bc 462e 923c
00000150: bbfe f5bb ff36 1bbd 0296 03bd eff0 3f3c
00000160: 7099 d73c 79d1 b03c e6cb c7bc aa38 c0bb
00000170: 872d aa38 cd72 9d3b a93b 7bbc 4a62 8abc
00000180: 6b84 7a3d 3ef5 3a3b c0f3 c03b 5474 02bc
00000190: f7dc d73c df94 8c3c 858d 51bc 0992 503c
000001a0: e4df dabc b067 003c 7744 153c 5a27 20bc
000001b0: fee2 bd3c 810c afbc 7fbe 88bc a994 ccbb
000001c0: 3852 243c 2e42 20bc 533a 373c 8752 c93b
000001d0: d748 3abd 723a d23b d625 99bc e18d 11bc
000001e0: 27d5 26bc 1e61 b2bb f9a3 163d 4d3f bbba
000001f0: 9cfb 623c fb79 853c 1855 a33c f7a9 473b
00000200: f97e 1b3d 0472 023c 335c 74bc 1477 013d
00000210: 951c cb3c 29e7 f7bc 1b1c 1f3c 2b91 883b
00000220: 376c 7d3c 6a96 c5bc 923d 14bc 2e0c 193b
00000230: e63d af3c 8244 073d 52b3 a8bc a3f7 8bbc
00000240: 0f6e 88bc 3258 a6bc 897c 11bb 5751 2bbc
00000250: 9b2d 043d 93ed 06bc f3dc 3abc 1713 433c
00000260: 92dc 02bc ee7f f2bc 1ba2 a3bc 6e6e a5bb
00000270: 8d81 833a 0a6d 603d 504d 87bc c5fe e9bc
00000280: 1da3 42bc 8aca 403b 6700 74bc 0a32 463d
00000290: 6410 adbb 3bc2 fabc 9beb 8abc 44e7 4d3b
000002a0: a14d 3dbb 2768 d2bb 3b2c b0bc 7c14 153d
000002b0: 1f10 9a3c f923 84bc ed11 c6bb 55fc 84bc
000002c0: b83d f2ba 2cb8 09ba a65c 2ebb 2c3e 89bc
000002d0: db53 4ebc 7ea0 74ba 8bb4 d9bc d035 113b
000002e0: 6b37 bbbc aded 8fb9 7380 70bb 4993 ab3b
000002f0: e5b6 ae3a 4c38 81b9 d7b7 f33c f48a 3f3a
00000300: 180c cc3c 4764 f0bb 7663 a3bc cc2d 0dbd
00000310: 815e 433c b46a 6abd 7588 dcbc f81c 24bc
00000320: 15c3 9e3b 4ed2 213c 49a1 07bc d440 d4bc
00000330: 553f d83c 8f85 acbc 1bc0 7f3c b45c 18bc
00000340: ecb8 16bd b990 e83c 9289 a93c b6a2 023d
00000350: 7c6c 39bb 62c5 9ebc aebf 1cbc 70fe 2f3c
00000360: 348f caba c73f 4c3c 412f 2cbd fb33 26bd
00000370: 4ba9 893c 27de 1d3b 455d 31bb 65d6 2cbc
00000380: 2256 983b 90a0 0dbc 99fa bcbc 2972 0c3d
00000390: f7db 583d e050 f23b c1e8 fb3c 508e 3bbb
000003a0: 32b2 813c 99a8 8abc de90 423c dd5d 0ebd
000003b0: 08ae a3bb 3cb0 643c 6d0c 4cbb 17dd a43b
000003c0: 454f c63c 23ed 053c 00a3 9f3a efd2 f23b
000003d0: 5743 733c 3cfd 3bbc 644d 3e3c 80af ddba
000003e0: dcfd 173c a6a4 25bc 3de3 6ebc 66e7 9b3b
000003f0: fc8c 473c 27cc a23b e759 0f3d 267a f63c
0.0051417486 0.01642219 0.0077255177 0.00814864 -0.02824742 -0.009926014 0.00020738726 0.0288685
-0.03145837 -0.009564129 0.044329863 0.00032259207 1.3675726e-05 0.006154237 0.006366191 -0.034202248
-0.029672971 -0.010736631 0.0029003355 -0.014596205 0.0016917126 0.007242125 0.0039477153 -0.006812092
-0.029187523 -0.022032239 0.016087743 -0.00909084 0.02229065 -0.0043475707 0.02952734 -0.01573664
0.0043405774 -0.0028630744 0.014198207 -0.037069265 0.0075239893 0.010609998 -0.048719767 -0.011050195
0.020938985 0.016507683 -0.012737907 0.00458471 -0.041906975 0.021275869 -0.018993722 0.022568272
0.02532296 0.033941533 0.023384525 -0.0066191074 -0.034631804 -0.004817108 0.0070429277 0.0030346974
-0.025284769 0.019780422 0.021753477 -0.01889478 -0.04464399 0.037324734 -0.009128065 -0.0068025235
0.011125101 -0.02422099 0.02686835 -0.019026209 0.025627783 -0.027311875 0.0025436112 -0.015399211
-0.025382293 -0.011045522 -0.044830807 0.010845978 0.022166725 -0.026995292 -0.02841525 -0.0061301948
-0.0128238425 -0.018762888 -0.0088645965 0.01784433 -0.007507173 -0.037894245 -0.03212548 0.011715158
0.026318282 0.02158426 -0.024389219 -0.00586613 8.114712e-05 0.004804945 -0.015334048 -0.016892571
0.06116144 0.0028527523 0.0058884323 -0.007962305 0.026350481 0.017160831 -0.012790089 0.01273013
-0.026718087 0.007837221 0.009110562 -0.009775007 0.023179527 -0.021368267 -0.016692398 -0.0062433076
0.010029368 -0.0097814035 0.011183339 0.006143871 -0.04547962 0.0064156586 -0.0186948 -0.008883924
-0.010182655 -0.005443706 0.03677747 -0.0014285833 0.013853934 0.016293516 0.019938037 0.0030466297
0.037962887 0.007961754 -0.01491456 0.031607702 0.024793902 -0.030261593 0.009711291 0.004167696
0.015467695 -0.024119575 -0.009047883 0.0023353207 0.02139182 0.03302432 -0.02059332 -0.017085856
-0.016654043 -0.020305727 -0.0022199473 -0.010456405 0.032270055 -0.008235353 -0.011405217 0.011906407
-0.007987158 -0.029602017 -0.019974759 -0.0050485646 0.0010033116 0.054791488 -0.016516358 -0.028563866
-0.01187971 0.0029417598 -0.014892674 0.048387565 -0.005281495 -0.030610194 -0.016958049 0.0031418363
-0.0028885382 -0.0064211073 -0.021505466 0.03639649 0.018806515 -0.016130434 -0.0060446174 -0.016233603
-0.0018481528 -0.0005253579 -0.0026605516 -0.016753279 -0.012593235 -0.00093317765 -0.026575347 0.002215732
-0.022853574 -0.00027452168 -0.0036697655 0.0052360636 0.0013329653 -0.00024646742 0.029750748 0.00073067774
0.02490811 -0.0073361727 -0.019944888 -0.034467503 0.011924387 -0.057230666 -0.026920537 -0.010016672
0.004845033 0.009876801 -0.0082781995 -0.025909819 0.026397387 -0.02105978 0.015609766 -0.009299446
-0.03679745 0.028389322 0.020695481 0.031893454 -0.0028293421 -0.019381229 -0.009567184 0.010741815
-0.0015454055 0.012466378 -0.042037252 -0.040576916 0.016804358 0.0024088712 -0.002706365 -0.0105491625
0.0046489397 -0.008644238 -0.023068713 0.03428856 0.05294415 0.007394895 0.030750634 -0.002861876
0.01583204 -0.016926097 0.011875359 -0.034757484 -0.0049951114 0.013958033 -0.0031135336 0.005031239
0.02420772 0.008174214 0.0012179315 0.007410399 0.014847598 -0.01147395 0.011615131 -0.0016913265
0.009276833 -0.010110056 -0.014580545 0.0047578095 0.012179609 0.0049681845 0.034997847 0.030087542

weight f4 [3, 1]
00000000: 6206 c8bb 46b4 8ebc 9142 c3bb
-0.0061042765 -0.017419945 -0.005958863

bias f4 [3]
00000000: 0000 0000 0000 0000 0000 0000
0.0 0.0 0.0

weight f4 [4, 1]
00000000: b4de 453c df05 7f3c dd80 913b dc68 96bc
0.012077022 0.015565365 0.0044404105 -0.018360548

bias f4 [4]
00000000: 0000 0000 0000 0000 0000 0000 0000 0000
0.0 0.0 0.0 0.0

weight f4 [1, 4]
00000000: 8844 ad3c 8a4f 803b 2eda e9bb e589 11bc
0.021150842 0.003915732 -0.0071366047 -0.008882974

weight f4 [3, 1]
00000000: bf52 babb 30b2 65bc 54bc d93b
-0.0056861336 -0.014019534 0.006644765

bias f4 [3]
00000000: 0000 0000 0000 0000 0000 0000
0.0 0.0 0.0

weight f4 [4, 1]
00000000: 9626 fe3c f98e 4ebc ff69 5abb 2076 d33c
0.031024259 -0.0126073295 -0.0033327339 0.025813162

bias f4 [4]
00000000: 0000 0000 0000 0000 0000 0000 0000 0000
0.0 0.0 0.0 0.0

weight f4 [1, 4]
00000000: 8204 8bbb 8b07 9f3b d8dd cb39 25b8 56bb
-0.0042424807 0.004853194 0.00038884464 -0.0032763567

weight f4 [3, 1]
00000000: c371 c03c 384c 013d 19a2 cc3b
0.023491746 0.03156683 0.0062449095

bias f4 [3]
00000000: 0000 0000 0000 0000 0000 0000
0.0 0.0 0.0

weight f4 [4, 1]
00000000: c2cd 813c 4907 23bc b6ef ffbc 3f5f 863c
0.015845183 -0.009950467 -0.031242233 0.016402839

bias f4 [4]
00000000: 0000 0000 0000 0000 0000 0000 0000 0000
0.0 0.0 0.0 0.0

weight f4 [1, 4]
00000000: 45e1 293b 131b cc3b cd98 113c daa8 9ebb
0.0025921625 0.0062288134 0.008886528 -0.004841906

weight f4 [3, 1]
00000000: c15a 163d d900 473c 5732 eebb
0.036707643 0.012146198 -0.0072691846

bias f4 [3]
00000000: 0000 0000 0000 0000 0000 0000
0.0 0.0 0.0

weight f4 [4, 1]
00000000: 7802 c63b 5a66 183c 821a 2dbd 4db3 c53b
0.0060427748 0.009301746 -0.042261608 0.006033337

bias f4 [4]
00000000: 0000 0000 0000 0000 0000 0000 0000 0000
0.0 0.0 0.0 0.0

weight f4 [1, 4]
00000000: 1ac0 10bc 9133 3ebc 3faa 9a3b f453 37bb
-0.008834863 -0.011608974 0.004720002 -0.0027973624

weight f4 [16, 1]
00000000: 5702 2441 e37e cd40 2326 60be 8aa6 b9c0
00000010: 87fe 52c0 caa0 bbc0 50f7 a1be 9603 8540
00000020: cb99 043f fd13 0041 7834 a240 952c 2d40
00000030: d6cd a4bf 3028 fdc0 2ec7 74c0 0091 1fc1
10.250571 6.421739 -0.21889548 -5.8015795 -3.296785 -5.8633776 -0.31633997 4.1566877
0.5179717 8.00488 5.068905 2.705846 -1.2875316 -7.9111557 -3.824657 -9.9729

bias f4 [16]
00000000: b3c0 00c1 c20d 93c0 c597 bb3d b07b 8740
00000010: e949 0a40 8c88 8740 46fa 04bd 0169 27c0
00000020: 7b80 4cbf 231a c1c0 0e38 69c0 743a d9bf
00000030: 4f16 3c3f bbb6 bc40 504b 3240 4c77 f940
-8.047046 -4.5954294 0.09159807 4.2338486 2.160761 4.2354183 -0.03246524 -2.615784
-0.79883546 -6.0344405 -3.6440463 -1.6970963 0.7347154 5.897306 2.7858467 7.7958126
