output/transfomer_weights/best_model_10epoch_chibi.pth (torch, 32570 bytes, 23 tensors)

weight f4 [128, 1]
000000 66 7b fa 3c 3b 5f ba 3c 1b ef 36 bc b4 a4 db bc
       0.03057642 0.022750488 -0.011165406 -0.026811935
000010 d3 2a 73 3c 9b 0b d5 bc 7d ac a9 bb 2e 13 6d 3c
       0.014841753 -0.02600651 -0.005178033 0.014469905
000020 67 79 99 bc fb 5c 95 3a a4 81 04 bd be 9d 24 bc
       -0.018734647 0.0011395508 -0.032350197 -0.010047374
000030 2b 86 36 3c ca 29 c1 bb eb 77 9b bb 49 86 14 3d
       0.011140387 -0.005894874 -0.00474452 0.036260877
000040 8f 27 ad bb 17 e4 ca 3b 27 6f cc 3c 7d 7a 1d 3d
       -0.005284257 0.006191741 0.024955345 0.038446892
000050 a5 4f 92 3c b4 da c2 bc 74 54 20 bc 69 c7 8c bc
       0.017860243 -0.023785926 -0.00978576 -0.01718493
000060 de ff a9 bb ee 96 17 3d e4 a5 01 3d 67 c4 86 3b
       -0.0051879724 0.037009172 0.031652346 0.0041127685
000070 57 72 c1 bc a0 3c 6d bc 9d 2a 6a bb de 25 5b bb
       -0.023614092 -0.014479786 -0.0035730966 -0.0033439319
000080 39 71 9e bb 9b cf 26 bd 14 85 c2 bb 20 70 ae 3c
       -0.0048352745 -0.04072533 -0.0059362743 0.0212937
000090 dd 23 29 3d ea e6 38 3c ca 97 8b 3c bd c7 48 3d
       0.041293968 0.011285523 0.017040152 0.04901861
0000a0 c1 96 d5 bc 54 b8 dc 3b a1 12 b4 bb c9 b9 fd 3c
       -0.026072862 0.006735841 -0.005495385 0.030972378
0000b0 5d fc 95 bc d7 75 7d 3b e7 9d b4 bc 5d c1 cc bc
       -0.018308813 0.0038674974 -0.02204795 -0.024994547
0000c0 db b6 7b bc 65 29 16 bc fd b0 b7 bb ab 79 42 bc
       -0.01536342 -0.009165143 -0.0056058154 -0.011869828
0000d0 6b ff a4 3a 20 10 33 3b 38 db 7f 3b 6c 22 01 3a
       0.0012588328 0.0027322844 0.0039040577 0.0004926089
0000e0 5e 6e 80 bc bb bb a8 3b ac e2 f9 3c 6c e9 0d bd
       -0.015677627 0.0051493323 0.030503593 -0.034646437
0000f0 0e 8a 3f bc c2 fc 53 3c c0 fc 84 3b 1b 3d 08 bd
       -0.01169063 0.01293868 0.0040584505 -0.0332614
000100 59 23 ba 3c c7 4c 80 3c b5 70 99 3b 5d 34 a1 bc
       0.022721933 0.01566161 0.004682625 -0.01967829
000110 27 5a 60 3d e8 5a 13 bc 47 56 0e bd ee 59 2d bd
       0.054773476 -0.008993842 -0.03475025 -0.04232209
000120 a9 77 a4 bb ab 6a 17 bc ac a3 ed bb d3 07 18 3d
       -0.0050191474 -0.00924174 -0.007252177 0.037116837
000130 c2 e4 49 3b b5 29 53 bc 0d 40 92 bc e5 c4 45 bd
       0.0030806516 -0.012888362 -0.017852807 -0.048283476
000140 cb 19 a9 3a 74 fa 2e bc 2f dd a5 bc 22 4b 23 bd
       0.0012901364 -0.01067983 -0.02024707 -0.039866574
000150 2f ce 71 3b 1b ee 32 bc 89 86 64 3b eb 94 2f bc
       0.0036896577 -0.010921027 0.0034870228 -0.010716657
000160 58 40 bb 3b 3a 96 06 3d 29 f5 d8 ba 45 6b 09 bd
       0.0057144575 0.03285811 -0.0016552556 -0.033549566
000170 82 a0 8e 3c 8e da 6e bc bb 36 d9 bb 04 0d 2f bc
       0.01741052 -0.014578475 -0.006628839 -0.0106842555
000180 29 eb cf 3c 2f 28 85 bc cd 4c 3c bc fe c8 de 3c
       0.025380688 -0.016254513 -0.01149292 0.02719545
000190 4a 96 cf bc 9e df 35 3d f7 b1 62 3c 21 ba 2f bc
       -0.025340218 0.04440271 0.013836375 -0.010725529
0001a0 19 73 3c 3b 0c 79 7c 3b 01 1c 80 bc f2 e4 3d bc
       0.0028755127 0.0038524298 -0.015638353 -0.011590229
0001b0 02 ca 66 ba f0 19 86 bc 3d 02 5f 3d bb 68 b2 3a
       -0.0008803905 -0.01636979 0.054445494 0.0013611534
0001c0 53 03 02 3b c7 43 c1 3b df d4 06 bc 70 89 32 bd
       0.0019838407 0.0058979723 -0.008229463 -0.043588102
0001d0 44 73 51 bb f3 ce 07 bd 7b 72 50 3c 38 70 d8 3c
       -0.0031959573 -0.033156347 0.012722607 0.026420698
0001e0 10 e8 26 ba 04 3f 2f 3c a2 7f 0e bd 20 43 55 3a
       -0.00063669775 0.010696176 -0.03478969 0.00081353076
0001f0 c6 55 53 3c e2 da e0 3c f6 eb b0 3c c5 7e e6 bc
       0.012898868 0.027448121 0.02159689 -0.02813662

weight f4 [3, 1]
000000 46 78 54 3b 73 70 ca bb 64 91 48 bc
       0.0032420321 -0.006177956 -0.012241695

bias f4 [3]
000000 00 00 00 00 00 00 00 00 00 00 00 00
       0.0 0.0 0.0

weight f4 [4, 1]
000000 3c f0 cb bc ba 80 fc b9 f1 6e f0 3b 27 c5 39 3c
       -0.024894826 -0.00048161094 0.007337444 0.011338509

bias f4 [4]
000000 00 00 00 00 00 00 00 00 00 00 00 00 00 00 00 00
       0.0 0.0 0.0 0.0

weight f4 [1, 4]
000000 06 49 1b ba 26 d9 ea bb c4 5a 69 ba b0 9d 5f 3c
       -0.0005923662 -0.0071669994 -0.000890177 0.0136484355

weight f4 [3, 1]
000000 d3 00 8a 3c 57 f7 92 bc 7a 35 14 bc
       0.016846096 -0.017940206 -0.009045953

bias f4 [3]
000000 00 00 00 00 00 00 00 00 00 00 00 00
       0.0 0.0 0.0

weight f4 [4, 1]
000000 92 27 02 bd 7f 71 5f 3d 4c 4f a6 3b 09 3a 9c 39
       -0.03177602 0.054551598 0.005075371 0.00029797878

bias f4 [4]
000000 00 00 00 00 00 00 00 00 00 00 00 00 00 00 00 00
       0.0 0.0 0.0 0.0

weight f4 [1, 4]
000000 05 f8 fa 3b ab 46 30 bc 7b 44 72 3b f2 1d 86 bb
       0.0076589608 -0.010759036 0.0036967087 -0.004092925

weight f4 [3, 1]
000000 f2 dc 81 bc 44 e0 ef 3c eb 29 3d bd
       -0.015852425 0.029281743 -0.046182554

bias f4 [3]
000000 00 00 00 00 00 00 00 00 00 00 00 00
       0.0 0.0 0.0

weight f4 [4, 1]
000000 6a 1d f9 bc ce 56 d0 3c 59 05 97 3c de 2b 36 3c
       -0.030409534 0.025432017 0.018435167 0.011118857

bias f4 [4]
000000 00 00 00 00 00 00 00 00 00 00 00 00 00 00 00 00
       0.0 0.0 0.0 0.0

weight f4 [1, 4]
000000 ce 04 f6 3b e1 cb 46 bb 65 a5 55 3c 18 7b 96 b9
       0.007507897 -0.0030333924 0.013039921 -0.00028701941

weight f4 [3, 1]
000000 01 43 e5 bc 7e 9b e2 3c dc 61 3c 3c
       -0.027986052 0.027662035 0.011497941

bias f4 [3]
000000 00 00 00 00 00 00 00 00 00 00 00 00
       0.0 0.0 0.0

weight f4 [4, 1]
000000 d1 6e ba bc 27 a4 1d 3b 12 f6 d0 3a 0d 8f 89 bc
       -0.02275792 0.0024054141 0.0015942475 -0.016791845

bias f4 [4]
000000 00 00 00 00 00 00 00 00 00 00 00 00 00 00 00 00
       0.0 0.0 0.0 0.0

weight f4 [1, 4]
000000 1d 36 c5 bb d6 68 cf 3b 7c e2 84 3b 0e 8e 98 bb
       -0.0060184137 0.006329636 0.0040553194 -0.004655606

weight f4 [16, 1]
000000 0c bc a8 40 4a 09 58 40 71 d5 6a 40 61 b8 d1 40
       5.272955 3.375567 3.6692774 6.553757
000010 8d 9c f9 40 7a a6 0a 41 ab e2 d4 40 61 47 a1 bf
       7.80036 8.665644 6.6526694 -1.2599908
000020 ef f2 e5 40 77 e7 17 c0 91 a9 44 c0 44 c0 13 c0
       7.185905 -2.3735025 -3.0728495 -2.30861
000030 a8 2a 8e c0 58 61 90 c0 2a 8f 08 3d ce 1e de bf
       -4.442707 -4.511883 0.033339657 -1.7353151

bias f4 [16]
000000 4a 6a 69 c0 3a 81 10 c0 42 fe 1b c0 15 12 96 c0
       -3.6471124 -2.2578874 -2.4373937 -4.6897073
000010 ef 66 b7 c0 62 23 d1 c0 79 43 99 c0 ad 7a 86 3e
       -5.731315 -6.535569 -4.7894864 0.2626547
000020 44 22 a6 c0 99 c0 8e 3f b0 21 01 40 a2 e3 89 3f
       -5.191683 1.1152526 2.0176811 1.0772593
000030 0d 0a 2e 40 80 e5 40 40 9d 6d d9 3e e2 3b 5f 3f
       2.7193635 3.0140076 0.4246644 0.8720075
