output/transfomer_weights/best_model_10epoch_su.pth (torch, 33259 bytes, 23 tensors)

weight f4 [256, 1]
00000000: e18e 0e3a b393 563c 9e37 87bc 3145 09bd
00000010: edec 333c 0728 4b3d 0094 cbbc 776f c6bc
00000020: ece3 d7bc c535 9a36 b483 363d 2ebf adbb
00000030: 5db4 5b3c ef37 883c e90d 8abc 9ead bf3c
00000040: 95db 793c 0ccd cebc b33e 6f3c a92c 18bd
00000050: b2e8 133c 160c 013d 4aa6 ce3b efb0 28bb
00000060: a931 493d 0231 1bbd c3ab 7dbc fdea dc3c
00000070: 2454 93bc 7027 4abc d7e3 b9bc 7e68 72bc
00000080: 3b90 9abc cf67 703c 393a 503c ed45 043d
00000090: c551 d73b 59b4 aa3b 726f 01bd e070 94bb
000000a0: 8464 ab3b 0fe1 143d cff4 f13c 59b1 d739
000000b0: 0e63 f0b9 7794 39bc f8e7 ba3c 3d76 43bd
000000c0: 24b8 b73c 3552 35bc 64f3 0e3b 5e04 9b3c
000000d0: d934 a8bc a552 f5bb 643e 8cbc 9c0d 3cbb
000000e0: d4af 173d d849 303c 6e6a 3c3b 9d04 0bbc
000000f0: ca7b aa3c 5cf4 a5bc fb03 f73a d4f1 813b
00000100: 654e d93c f3db 873c e946 443b 8cad f83c
00000110: e612 0c3c 2b2f 7abc b49c d5ba 4cc0 1c3c
00000120: 185c feba 6b63 faba 587e 07bc 4041 743b
00000130: 3488 123d 5def 13ba 9167 23bc b7ec 843b
00000140: 178f e5bb d35f 593b 10c4 95bc e12d b7bb
00000150: 9965 dcbc 59cc 8d3c 0bf5 9fbc fc66 1f3d
00000160: ddb4 bbbb 70c2 353b a9cc 743c 29c0 083c
00000170: c42a 0c3a 948b 16bd 4c72 d73c dd93 bebb
00000180: 3c51 253c e785 cc3c 5b30 8d3c 6f99 a83b
00000190: be17 f63b 725f bbbc 0160 95bb 8fda bebc
000001a0: ef9d 733c d51f 3c3c 0bc7 36bc d94e 07bc
000001b0: 921f e13c 92c5 3fbc bbb1 a239 d446 163d
000001c0: cf76 53bc ce50 e53c 8eb9 dd3a d7b9 c13c
000001d0: 347b 96bc 30fa d73b 6092 16bc e311 763b
000001e0: 1041 743d f873 f2bc 9e0a 65bc ca14 55bc
000001f0: 22ad 8fbc 0dae c1bc 7b00 d23b bd41 1c3c
00000200: c549 4b3c 7d04 383b 0501 8eba 05a0 cbbc
00000210: 6ec4 6b3b 94fd 9e3b 6f10 d23c cbde 7c3b
00000220: 8a7c 67bc ef46 71bc 3866 723c 8ad2 e73c
00000230: 0671 2bbd 4eac 10bd 0235 44bc 3f62 073d
00000240: e2be 4abb c9cd 66ba a0b0 6bbc c219 4abc
00000250: 6a98 e7bc 3d72 b23a 5d7f 793c c7e9 693c
00000260: 825e 81ba 4f6e 73bc cb13 2abc d431 1bbd
00000270: 56f7 00ba 15de bf3c 1463 b1bc a756 5dbc
00000280: 7724 78bc aed4 e83c ecee e43b d91b 99bc
00000290: 5619 8dbc c1e8 bdbb 9438 f93c 102b 5d3a
000002a0: 938e 1abb 4e56 3cbc f459 5b3c f484 0cbc
000002b0: 75c6 cf3c d064 ddbb 1279 8cbc c7bf 1dbc
000002c0: 4461 273c b8f0 a1bb 937b a23a b8b1 11bd
000002d0: 8268 d73c d263 703c 5757 aa3c eac3 9cbb
000002e0: 44e3 9a3b fd73 f6bb 3db3 a2ba 4a9a b83b
000002f0: 3bf2 d0bb 7e57 16bd d05f 153c 85b8 d93b
00000300: 529d 3ebc ab5a 103c 4c17 efbb 82f2 a8bc
00000310: 6e36 ba3c ca49 6a3c c0f3 19ba 4e76 423a
00000320: 935e dabb 845e 2fbd ea77 d2bb 10a0 a43c
00000330: 7d65 8d3c 77bc 6e39 b9e9 213d 0bce 0ebc
00000340: 66a1 b8ba fe9a 7c3c 20c9 dcbc 39a9 cdbb
00000350: f324 bd3c 4f21 b23b 6250 2dbc a754 d63c
00000360: 62fe dc3a 37b0 c7bc e52b 2c3c 27ce b2bc
00000370: f8fa dabc 7de3 1cbc e1e1 beba 1260 013b
00000380: f760 293c fc1f 273c b846 113d c55a 19bb
00000390: 4aee 913c fbba 19bc e981 28bd e20a 2bbc
000003a0: 73f2 9a3c ed22 453c ca5b ca3c 5d93 d13a
000003b0: 23ad f1bc 2fad d0bb 6b51 0f3d 6983 483b
000003c0: e243 babb 6e21 c4bc ed10 4bbc 0b33 c2bb
000003d0: 248b 143c d8ec a73c d85a 153d 07c4 0bbd
000003e0: ef93 0a3d 60aa a8bc 1590 e03c de1a 113d
000003f0: 90c5 dcbc 84ea bebb 3833 c2bc 46e0 1ebb
0.0005438161 0.013096738 -0.016506013 -0.03351325 0.0109817805 0.04959872 -0.024850845 -0.024223072
-0.026353799 4.5958172e-06 0.044559196 -0.0053023314 0.013409701 0.016628234 -0.016852336 0.023398217
0.015250106 -0.025244258 0.014602351 -0.037151966 0.009027647 0.031505667 0.0063064443 -0.0025740226
0.049119625 -0.037888534 -0.015482846 0.02696752 -0.017984457 -0.012338504 -0.02269165 -0.014795421
-0.018867603 0.014673187 0.012709194 0.03229325 0.006571027 0.0052094874 -0.031600423 -0.0045300573
0.0052304883 0.036347445 0.02953568 0.0004114013 -0.0004585017 -0.011326901 0.02281569 -0.047720183
0.022426672 -0.011066963 0.0021812553 0.01892298 -0.020533012 -0.0074866586 -0.017119594 -0.0028694635
0.037032917 0.010759793 0.002874996 -0.008484987 0.02081098 -0.020258121 0.0018845791 0.0039655957
0.02652664 0.016584372 0.0029949492 0.030356191 0.008549428 -0.015270035 -0.0016297312 0.0095673315
-0.0019406108 -0.0019103115 -0.008269869 0.0037270337 0.035774425 -0.0005643273 -0.009973423 0.004056539
-0.007005583 0.0033168688 -0.018281966 -0.005590186 -0.026903914 0.017309355 -0.019526025 0.038916573
-0.0057283477 0.0027734302 0.014941373 0.008346596 0.0005346949 -0.036754206 0.026299618 -0.0058159665
0.010090169 0.024966193 0.017234972 0.005145244 0.0075101545 -0.02287266 -0.0045585637 -0.023297576
0.014869197 0.011482199 -0.011155854 -0.008258545 0.027480874 -0.011704819 0.00031031467 0.03668864
-0.012906744 0.027992632 0.0016916262 0.023648186 -0.018369295 0.006591104 -0.009190172 0.0037547282
0.05963236 -0.029596314 -0.013979582 -0.013005445 -0.01753861 -0.023642564 0.0064087487 0.009537158
0.012407725 0.0028078847 -0.0010834044 -0.024856577 0.0035975236 0.004852006 0.025642602 0.0038584943
-0.0141288135 -0.014726385 0.014794879 0.028298635 -0.041855834 -0.035320573 -0.011975529 0.03305268
-0.003093653 -0.0008804468 -0.014385372 -0.012335243 -0.028270919 0.0013614368 0.01522812 0.014276928
-0.0009870084 -0.014857843 -0.010380696 -0.037889317 -0.00049196684 0.023421327 -0.02165369 -0.013509429
-0.015145413 0.028421726 0.0069864895 -0.018690037 -0.017223995 -0.0057955687 0.030422486 0.0008436898
-0.0023583516 -0.011495186 0.013388146 -0.00857662 0.025363186 -0.0067564026 -0.017147575 -0.009628243
0.010216061 -0.004942026 0.0012396447 -0.035569876 0.02629495 0.0146722365 0.0207936 -0.004784097
0.004726799 -0.007521151 -0.0012413036 0.005633627 -0.0063765324 -0.036704533 0.009117082 0.006644311
-0.011634188 0.008810679 -0.0072964784 -0.02062345 0.022731032 0.014299819 -0.00058728084 0.00074181415
-0.006664106 -0.042814746 -0.0064229863 0.020095855 0.017260307 0.00022767657 0.039529536 -0.008716117
-0.0014086186 0.015417812 -0.026951373 -0.0062762764 0.023088908 0.0054360996 -0.010578247 0.026163412
0.001686048 -0.024376018 0.010508512 -0.021826817 -0.026731 -0.009575722 -0.0014563167 0.00197411
0.01033806 0.010200497 0.035467833 -0.002340005 0.01781382 -0.0093829585 -0.041139517 -0.010439606
0.018914437 0.012032253 0.024701972 0.0015989352 -0.029501503 -0.0063683013 0.034989756 0.0030595905
-0.005684362 -0.023941722 -0.012394172 -0.005926495 0.009066377 0.020498678 0.03646359 -0.034122493
0.033832487 -0.020589054 0.027412454 0.035426013 -0.026949674 -0.0058262963 -0.023706064 -0.0024242564

weight f4 [3, 1]
00000000: aaff 4fbc a4b9 df3b 1be7 e5bc
-0.012695232 0.00682755 -0.028064301

bias f4 [3]
00000000: 0000 0000 0000 0000 0000 0000
0.0 0.0 0.0

weight f4 [4, 1]
00000000: ba0e a53c f59f adbc 5ef4 073c cdf1 b63c
0.020148624 -0.021194438 0.008298008 0.022332096

bias f4 [4]
00000000: 0000 0000 0000 0000 0000 0000 0000 0000
0.0 0.0 0.0 0.0

weight f4 [1, 4]
00000000: 42f6 083c e3ee 423c 173d acbb 30ee 893b
0.008359494 0.011897775 -0.005256306 0.0042093024

weight f4 [3, 1]
00000000: bb1c f43c 8d7a 8abc 4977 a03c
0.029798856 -0.01690414 0.01958813

bias f4 [3]
00000000: 0000 0000 0000 0000 0000 0000
0.0 0.0 0.0

weight f4 [4, 1]
00000000: 1e6b b63b 28f3 6a3b e61e f53c d729 483c
0.0055669686 0.0035850499 0.02992196 0.012217007

bias f4 [4]
00000000: 0000 0000 0000 0000 0000 0000 0000 0000
0.0 0.0 0.0 0.0

weight f4 [1, 4]
00000000: 73e0 afba 5309 5f3b ee08 d33b d84d a13b
-0.0013418332 0.0034032657 0.0064402735 0.00492261

weight f4 [3, 1]
00000000: 2d6a 17bc 9766 52ba 19a7 503d
-0.009241623 -0.00080261513 0.050940607

bias f4 [3]
00000000: 0000 0000 0000 0000 0000 0000
0.0 0.0 0.0

weight f4 [4, 1]
00000000: 6d3a bd3a 290e dcbc 622d 36b8 1158 a5bc
0.0014436968 -0.02686222 -4.3434447e-05 -0.020183595

bias f4 [4]
00000000: 0000 0000 0000 0000 0000 0000 0000 0000
0.0 0.0 0.0 0.0

weight f4 [1, 4]
00000000: c22f 14bc bbfd 92ba 3fd7 673b 4e1d 4c3c
-0.0090445895 -0.0011214534 0.00353761 0.012458159

weight f4 [3, 1]
00000000: 88e3 483d a138 5dbc d93e 78bc
0.049045116 -0.013502271 -0.015151703

bias f4 [3]
00000000: 0000 0000 0000 0000 0000 0000
0.0 0.0 0.0

weight f4 [4, 1]
00000000: 617d e9bc af04 373c 85ee 3a3a af7b d03c
-0.028502168 0.01117055 0.0007130879 0.025449602

bias f4 [4]
00000000: 0000 0000 0000 0000 0000 0000 0000 0000
0.0 0.0 0.0 0.0

weight f4 [1, 4]
00000000: eba8 7bbb 570f f6bb 68fb f73b c2f4 003a
-0.0038400244 -0.007509153 0.0075678118 0.0004919284

weight f4 [17, 1]
00000000: f350 2541 363c d040 29b7 62be 96b4 bbc0
00000010: 967a 55c0 eea0 bdc0 c6ab a3be 41cd 8640
00000020: 6cdd 083f 9eb2 0041 a6cd a340 0617 2f40
00000030: 3a8b a6bf 2be4 00c1 1673 f7c0 ac87 77c0
00000040: 606a 22c1
10.332263 6.50735 -0.22140183 -5.865794 -3.335607 -5.9258947 -0.3196699 4.2125554
0.5346286 8.043608 5.1188536 2.7357802 -1.3011239 -8.055705 -7.7327986 -3.8676558
-10.15097

bias f4 [17]
00000000: 2c55 00c1 25e4 92c0 b264 a03d 88b8 8540
00000010: 75cf 0b40 a13b 8640 76ae eebb 3205 2dc0
00000020: 17d3 48bf 21c2 bdc0 e093 65c0 0169 d6bf
00000030: 6515 3a3f f575 be40 ceee b540 9553 2e40
00000040: 14ac fb40
-8.020794 -4.5903497 0.07831706 4.178776 2.1845372 4.194779 -0.007283981 -2.703442
-0.784471 -5.9299474 -3.5871506 -1.6750795 0.72688895 5.951899 5.685401 2.7238514
7.8647556
