models/linear_model_final.pth (torch, 69311 bytes, 4 tensors)

weight f4 [64, 129]
000000 e7 42 6c 3f dd ae 33 bd 80 e7 8e 3e 37 21 95 bf
       0.92289585 -0.043867934 0.27910995 -1.1650761
000010 44 19 ad bd c8 ad 87 3f da ae 01 c0 0c 96 97 bf
       -0.08452085 1.0599909 -2.026297 -1.1842666
000020 49 52 8b 3f 31 5c 58 be cc 37 aa bf 2c 25 cd 3f
       1.0884486 -0.21128918 -1.3298278 1.6026969
000030 c4 21 c6 3f 92 34 82 bf 19 c4 a3 3f ca a6 d4 3f
       1.5479054 -1.0172293 1.2794219 1.66134
000040 f7 5d c7 be b3 a6 91 3f fe 59 67 3f a4 49 11 3e
       -0.38938877 1.1378998 0.9037169 0.14188248
000050 6c c6 60 3f 5d b7 34 3d 0a 20 e1 bf b9 e9 bc 3f
       0.8780277 0.04412018 -1.7587903 1.4758826
000060 40 f2 d5 3d 8f 6c ca 3e 39 b9 2b bf 25 0b 02 40
       0.10446596 0.3953595 -0.670795 2.0319302
000070 ca c2 04 c0 3f f5 00 3f fc 20 9d 3c 42 32 1c 3f
       -2.074389 0.50374216 0.019180767 0.6101419
000080 2c c7 23 3e 6c 7c a9 be 1d 86 d0 bd 46 33 6a bf
       0.15993947 -0.3310274 -0.1018183 -0.9148449
000090 da 68 63 bf 50 1a 59 be c5 ac da 3f e7 8e da 3e
       -0.88831866 -0.21201444 1.7083975 0.4268715
0000a0 90 32 c9 3e 9c 42 41 3e 6d 62 62 3e 95 5e 0f 3f
       0.3929639 0.18873066 0.22107859 0.56003696
0000b0 07 b2 b6 3f c6 83 cc bf 80 d9 21 3f 2b 71 5f bf
       1.427308 -1.5977714 0.63222504 -0.87282056
0000c0 38 b1 82 bf 24 eb 02 40 db a7 09 3f f2 07 9e bf
       -1.0210333 2.0456018 0.5377175 -1.2346175
0000d0 ee 74 13 bf 9b 4f c1 3e 77 ad ec be d5 8c 50 bd
       -0.57600296 0.37756047 -0.46226093 -0.050915558
0000e0 9d d3 8d be b8 5b 01 bf 9c 11 aa be 20 fb 4d be
       -0.2770051 -0.50530577 -0.3321656 -0.20115328
0000f0 ce 5e ca bd 5e 02 84 bd bd 5b 92 bf 88 76 27 3e
       -0.09881364 -0.06445764 -1.1434246 0.1635381
000100 f6 c2 ad be d6 71 87 3d 8b 93 af 3c 8b c2 7d bd
       -0.33937806 0.06613509 0.021432659 -0.06195311
000110 d4 86 1b 3f cd 19 fc 3c c9 be d4 bc 9c e7 eb 3f
       0.60752606 0.030774022 -0.02596988 1.8430057
000120 34 9a 54 bf c1 a8 ee bd 42 d2 50 bd 48 58 9f be
       -0.83047795 -0.11653281 -0.050981767 -0.3112204
000130 19 a4 6d bf 1e 20 2c bd 93 27 83 bf 0c 98 9f be
       -0.9282852 -0.042022817 -1.0246452 -0.3117069
000140 9b 17 8b bf 8b 77 17 be 42 df 06 3f 2e 53 71 3f
       -1.0866579 -0.14791696 0.52684414 0.9426755
000150 f1 56 89 bf 30 4c d5 3e f6 38 c7 3e 31 6f 47 3f
       -1.0729657 0.4165969 0.38910645 0.7790404
000160 b6 cd 2d bc ca 4d a2 3e d5 b1 da 3e 70 9d 60 bf
       -0.010608127 0.31699973 0.427138 -0.8774023
000170 92 c1 46 c0 53 03 9e bf ea 76 2f 3d 68 73 05 3f
       -3.1055646 -1.2344764 0.042838015 0.5212922
000180 18 00 d7 be 72 17 28 3e ba 4b 28 3f 49 5c 8f 3e
       -0.4199226 0.16415194 0.6574055 0.28000095
000190 41 f2 1c 3d c2 e2 f2 3c c0 0c f0 3f f5 3f da be
       0.03831697 0.029649142 1.8753891 -0.4262692
0001a0 0d aa 5a bf 52 af 79 3e c6 05 96 bf 37 ec 44 bf
       -0.85415727 0.24383286 -1.1720512 -0.76922935
0001b0 6e 43 58 be ed 71 35 3f 1f 7b 10 3d c9 62 bc be
       -0.21119472 0.7087696 0.035273667 -0.36794117
0001c0 52 cc 05 3e af 0a a1 3e 42 aa 82 bf d9 15 0d 40
       0.13066223 0.31453463 -1.0208209 2.2044585
0001d0 6b 65 b8 bf d7 73 f8 bf 74 1b 84 3e 88 25 ab 3f
       -1.440595 -1.9410352 0.25802195 1.3370829
0001e0 79 d0 c0 3f 64 93 42 3f e5 79 66 3f 35 69 23 bf
       1.5063621 0.7600615 0.90029746 -0.6383241
0001f0 51 89 fb 3f 45 1b a0 bf 52 78 af bf dc ef 95 3e
       1.9651281 -1.2508322 -1.3708594 0.2928456
000200 a4 70 1f 41 40 cf c3 3d e5 d3 96 be 86 0a ba 3e
       9.965 0.09561014 -0.29458538 0.36336154
000210 c2 ec 85 3e 0f 26 bb be 89 c5 c2 3f 86 9c 1e c0
       0.26157194 -0.36552474 1.5216533 -2.4783034
000220 f6 54 b8 bf 2f 2f 01 3f 41 1f ec bf 58 35 0d c0
       -1.4400928 0.5046262 -1.8447038 -2.2063808
000230 93 d8 38 3f 9a cc 22 be f7 c2 a1 3f 38 73 48 3f
       0.72205466 -0.15898362 1.2637624 0.7830081
000240 48 a2 b4 3f 3f c5 85 3f 18 29 29 bd 66 ad c4 3d
       1.4112024 1.045082 -0.041298956 0.096033856
000250 b2 39 30 be 68 9a 94 3f 24 62 eb 3e 0f 6b c6 bf
       -0.17209509 1.1609621 0.45973313 -1.5501422
000260 de e0 a1 3f 50 48 fa be 78 11 28 3e ab 00 69 bf
       1.2646749 -0.48883295 0.16412914 -0.91016644
000270 13 82 23 40 58 3a f3 bf 67 61 7e 3f 3b 71 98 bd
       2.554814 -1.900218 0.99367374 -0.07443472
000280 b5 e9 e8 3d 06 fc 8e be 0e 08 85 bf eb a7 27 bf
       0.11372701 -0.27926654 -1.0393083 -0.654906
000290 fb e0 64 be bc 98 a3 bf 60 0a d7 be 80 7f 49 be
       -0.22351448 -1.2780986 -0.42000103 -0.19677544
0002a0 a3 8b bf 3e 61 79 7b 3e 43 a3 60 3d 1c 2e 89 3e
       0.37411222 0.24558021 0.0548432 0.2679299
0002b0 a9 31 2c 3f 55 1c a1 3f 49 e9 d8 bf 3a 39 68 3f
       0.67263275 1.2586771 -1.6946193 0.9071232
0002c0 2b 56 00 bf 11 9e 23 bf cc 80 9f be e4 c5 cb 3e
       -0.5013148 -0.63913065 -0.31152952 0.39799416
0002d0 0a 56 d4 bf 7b a2 3a bf 30 4f e8 3e fe f1 17 3e
       -1.6588757 -0.72904176 0.45372915 0.14838406
0002e0 d6 aa 37 3f f4 52 02 3f c0 d4 ae 3c c8 14 5d be
       0.7174505 0.50907826 0.021341681 -0.21589959
0002f0 bf 60 d5 be 1a df 6d be 37 72 c2 bd ed fe 93 bc
       -0.41675374 -0.23229638 -0.09494441 -0.018065894
000300 a1 d4 a4 3d b6 dd 0f 3d a3 af af 3e da 19 92 3e
       0.08048368 0.03512355 0.34313688 0.28535348
000310 e2 21 a1 be 37 18 e7 3e df ef bc 3d 16 6e 5c bd
       -0.31471163 0.45135662 0.09225439 -0.053815924
000320 a1 10 da 3f 91 77 66 bf 20 2d 07 3d f1 b0 54 3e
       1.7036325 -0.90026194 0.03300202 0.20770623
000330 5d fb da 3e c1 f3 84 bf 73 e4 b1 be 09 a5 94 bf
       0.427699 -1.0386888 -0.34744605 -1.1612865
000340 b3 2b ba be 24 a1 bf bf e6 70 61 bf c2 aa a8 3e
       -0.36361465 -1.4971051 -0.88062894 0.32942778
000350 58 22 89 3f ca 2b d2 bf 3c 49 6e bf 7d 01 e0 be
       1.0713606 -1.6419613 -0.93080497 -0.43751135
000360 5a 6a 39 3f 2d ff e8 bc 33 5e 4a bf a6 98 48 bf
       0.72427905 -0.02844199 -0.79049987 -0.78357923
000370 98 b4 80 be fe 7b 32 3e 9e de 75 3f 5b 7a 9d 3e
       -0.25137782 0.17430112 0.9604281 0.30757412
000380 b2 9c 96 3f e7 18 fa be e0 a6 18 bf 11 a1 19 be
       1.176657 -0.48847124 -0.5962963 -0.15002848
000390 b2 0b d2 3c 33 e2 eb 3d f9 68 12 3f a3 07 1f 40
       0.025640342 0.115177535 0.57191426 2.484841
0003a0 14 9b c3 be a3 43 c3 be 34 12 c8 3d 9e 1e 95 bf
       -0.38204253 -0.3813754 0.09769097 -1.1649969
0003b0 be 65 2c bf 8b 74 b1 bf 97 d8 29 be 36 48 13 3f
       -0.67342746 -1.3863691 -0.16586529 0.5753206
0003c0 a3 ab 1c be 7e 39 3f be d4 f3 13 bf 11 ba 10 3f
       -0.15299849 -0.18674275 -0.5779393 0.56533915
0003d0 2e 19 0b 40 d7 af 32 bf 4f 39 9c bf db f3 89 3e
       2.1734118 -0.6979956 -1.2204989 0.2694386
0003e0 a8 42 79 3f c0 9b 52 3f 99 93 cc 3f 9c 84 c7 3f
       0.97367334 0.82268906 1.5982543 1.5587344
0003f0 c7 92 fb bf 76 12 07 40 4e c3 46 bf dc cb 4b bf
       -1.9654168 2.1105018 -0.7764176 -0.7960794

bias f4 [64]
000000 70 44 a4 41 df f3 a2 41 4d bf a6 41 aa 38 ad 41
       20.533417 20.369078 20.843409 21.652668
000010 94 d4 ba 41 8c 19 b0 41 dc db b1 41 3d a7 a5 41
       23.353798 22.012474 22.232353 20.70666
000020 dc 26 8c 41 d8 86 82 41 76 8d ab 41 c4 34 aa 41
       17.518974 16.315842 21.444073 21.275764
000030 ae 25 a6 41 b1 1c a5 41 96 77 9c 41 b3 a9 ac 41
       20.768398 20.63901 19.558392 21.58286
000040 49 2a e1 3f 34 61 a1 41 07 6f a1 41 7f c4 95 41
       1.759103 20.172462 20.179213 18.720945
000050 2a 57 a6 41 5d 10 a3 41 6c 39 a3 40 43 8f b2 41
       20.79256 20.38299 5.1007595 22.319952
000060 87 c3 ac 41 db 29 95 41 81 1f b6 41 c7 14 be 41
       21.595472 18.645437 22.765383 23.760145
000070 6d b5 ba 41 22 4d 68 41 f3 31 b7 41 72 0b b6 41
       23.338587 14.518831 22.89939 22.755589
000080 2b 2c c9 41 64 80 a2 bf 53 59 4b 40 1b de a8 41
       25.146566 -1.2695432 3.177327 21.10845
000090 e5 de a3 41 6e 82 ad 41 9a 72 9a 41 18 d4 83 41
       20.483835 21.688686 19.305958 16.478561
0000a0 39 ef 93 41 1f 07 80 41 f9 a1 a2 41 58 7d 9d c0
       18.491808 16.003477 20.329088 -4.9215508
0000b0 17 0d cf 41 5d 57 a9 41 65 04 a6 41 03 be b9 41
       25.881392 21.167658 20.752146 23.21778
0000c0 b8 78 ae 41 c2 59 b7 41 41 60 be 41 e8 b3 a8 41
       21.808945 22.918827 23.796999 21.087845
0000d0 a0 1b 8c be aa cc b0 41 76 d9 cd 3e 80 6a ae 41
       -0.27364826 22.099934 0.40204972 21.802002
0000e0 60 98 aa 41 80 0c a7 41 8b 52 a8 41 95 34 b8 41
       21.324402 20.881104 21.040304 23.025675
0000f0 19 6d af 41 cb d9 d2 41 1d a8 9f 41 37 3c 4e c0
       21.92827 26.356344 19.957087 -3.2224252

weight f4 [129, 64]
000000 86 bc 45 c0 84 25 9c c0 fa 3f 4d 3e c5 02 fb 3e
       -3.0896316 -4.8795795 0.20043936 0.4902555
000010 56 e8 db 3e 41 d1 01 c0 e7 ef d5 40 e9 e2 3d c0
       0.42950696 -2.0283968 6.685535 -2.9669745
000020 f2 ab 49 41 42 07 c8 bf 16 cd 2d 40 f0 d1 13 c1
       12.604479 -1.5627215 2.7156425 -9.238754
000030 7a 99 51 c1 40 6f c6 3f aa 7c 0a 41 5c 90 64 41
       -13.09997 1.5502701 8.655436 14.285244
000040 68 06 1f 40 1b f6 85 41 ca b7 d0 c0 09 aa ca 40
       2.484766 16.745169 -6.522435 6.3332562
000050 30 39 ad c0 b6 8e 5a c0 2a de a2 c0 95 76 bb 40
       -5.413231 -3.4149604 -5.0896196 5.8582253
000060 4f c7 7e 3f 61 46 d1 c0 4b 30 fa c0 4b d0 31 c1
       0.9952287 -6.539841 -7.818395 -11.113353
000070 76 d3 e0 40 2e 89 8a c0 11 f8 39 c1 68 b4 bf 40
       7.025813 -4.3292456 -11.623063 5.9907722
000080 9f b3 9e 3f 76 7b 28 c0 fd 96 ac c0 09 2f 84 40
       1.2398566 -2.6325355 -5.393431 4.1307416
000090 7e 63 0b c0 55 21 c9 3f 14 2f 15 c1 4c d0 94 40
       -2.1779475 1.5713297 -9.323994 4.650427
0000a0 a9 ee b0 41 e3 f8 3e c0 79 d1 fe bf af d7 96 40
       22.116533 -2.9839408 -1.9907676 4.7138286
0000b0 a8 0a ba c0 30 f4 c6 c0 8b ed 0a c0 74 1f 5c c0
       -5.813801 -6.217308 -2.1707485 -3.4394197
0000c0 7a e6 8f bf 10 89 c2 3f 3a e3 28 41 5a 8c b2 3d
       -1.1242211 1.5198078 10.555475 0.08718176
0000d0 5c 2d 04 3f 8f 4b b4 c0 fc fc 35 bf 5e c9 38 bf
       0.5163171 -5.6342235 -0.7108915 -0.7218226
0000e0 78 69 38 c0 64 b7 d7 40 d7 2f ab c0 dc 43 88 41
       -2.8814373 6.7411366 -5.34959 17.033134
0000f0 e9 3c 5e 40 95 2d 68 c1 fa b8 3d 40 81 ec 9a 40
       3.4724677 -14.511128 2.964415 4.84137
000100 05 91 09 41 a5 9e 55 40 5c 31 06 c1 0f 0a 71 c0
       8.597905 3.337808 -8.387051 -3.766239
000110 e3 68 1d c0 55 9d 14 c1 59 97 ae 40 13 73 54 41
       -2.4595268 -9.288411 5.455975 13.278094
000120 0a 76 4e 3f e6 af cf 40 66 fd 59 40 a9 ec e8 c0
       0.80648863 6.490222 3.4060912 -7.278889
000130 a3 54 18 c1 fa d6 96 c0 77 66 2b c1 3c cb bc 40
       -9.520663 -4.7137423 -10.712516 5.899809
000140 6b 89 96 3f 63 8d b9 40 db 97 fb c0 f1 68 40 41
       1.1760687 5.798509 -7.862287 12.02562
000150 60 b8 29 41 71 22 86 40 01 20 7c bf f0 d5 b8 c0
       10.607513 4.1917043 -0.98486334 -5.7761154
000160 69 db 87 c0 35 15 3e 3d fd f8 bd c0 d4 39 5e c1
       -4.2455335 0.046406943 -5.936644 -13.889118
000170 e5 a1 c9 bf 4b c4 30 be d5 4e be c0 32 d6 a3 c0
       -1.5752531 -0.1726238 -5.947123 -5.119897
000180 01 83 b5 3f 52 d8 33 bf 39 0b e5 c0 b4 80 e0 be
       1.4180604 -0.70251954 -7.15762 -0.43848193
000190 d2 4a 92 40 7f 40 8b 40 f7 86 1e c1 60 10 a2 3f
       4.5716333 4.351623 -9.90795 1.2661247
0001a0 f0 24 85 bd 38 3d 8f 40 0c 15 cb c0 1a e2 a8 3f
       -0.06501186 4.476223 -6.346319 1.3194001
0001b0 64 93 e2 3e 40 8f e9 40 70 03 11 c0 67 1e a4 c0
       0.44253075 7.2987366 -2.2658348 -5.128711
0001c0 81 49 b5 3f b1 98 92 40 70 18 f5 bf fd 12 3f 41
       1.4163057 4.581139 -1.9148083 11.942136
0001d0 72 ce 5f 40 18 0c 20 40 6a 13 5a c0 af 63 25 41
       3.4969754 2.5007381 -3.407435 10.336837
0001e0 b7 01 ad 3e 02 5d f8 c0 4a 3d 21 40 0b 6d bc 40
       0.3379037 -7.7613535 2.5193658 5.888311
0001f0 87 b3 4c c1 df 3f 0c 41 28 48 b2 40 ec c2 da 40
       -12.79383 8.765594 5.571308 6.836294
000200 0b af 73 40 4f f2 0d 40 4a 07 3b bf 51 71 eb 40
       3.8075588 2.2179143 -0.73058 7.3575826
000210 42 a7 95 bf 97 23 e3 bf 33 d9 02 40 43 a5 de 40
       -1.1691668 -1.7745236 2.0445068 6.9576735
000220 67 d8 7a c0 57 c6 4e 40 61 9e be bf bf d0 d3 3f
       -3.9194582 3.2308557 -1.4892083 1.6548079
000230 f8 75 6e c0 2c 5e 9a c0 69 69 08 c0 6a d2 8b c0
       -3.7259502 -4.8239956 -2.1314337 -4.3694353
000240 77 bb c0 3e 4b 52 00 bf 76 1c b7 bf ac 56 85 40
       0.37643024 -0.5012557 -1.430556 4.16683
000250 46 1a 49 40 61 69 59 3f bd 13 40 bf 73 da cd c0
       3.1422286 0.8492642 -0.7503012 -6.432916
000260 36 65 c2 3f 6e 25 ed 3f 81 5a db bf 5a f3 32 c0
       1.5187137 1.8527048 -1.7136995 -2.796103
000270 51 d6 ec 3f 66 a8 87 40 86 42 b2 c0 a2 f5 d2 c0
       1.8502904 4.2393064 -5.5706205 -6.5924845
000280 08 e5 6f 40 eb 87 d7 be d8 29 7d c0 a1 83 88 3f
       3.748354 -0.42095885 -3.955679 1.066517
000290 14 10 22 40 b2 c0 b5 40 d6 d0 0a c0 d9 ca 08 3f
       2.5322313 5.6797724 -2.1689963 0.5343452
0002a0 3a 44 6f c0 61 8e 59 bf 63 78 a0 bf 84 e9 67 3f
       -3.7385392 -0.8498288 -1.2536739 0.9059069
0002b0 e6 50 ff 3f 3d 7f e6 40 de 17 0e be 13 82 84 be
       1.9946563 7.203032 -0.13876292 -0.2588049
0002c0 50 3b 35 40 06 90 f9 be 4b 83 e1 c0 e9 a8 a0 40
       2.8317451 -0.48742694 -7.047277 5.020619
0002d0 a1 0c 2c 40 59 81 1a 40 06 fb 34 c0 c8 38 2f 3f
       2.6882708 2.4141448 -2.8278213 0.68446016
0002e0 34 63 88 c0 a1 4e 1c c0 c8 1a 4e 40 7e a4 e0 bf
       -4.2621098 -2.4422991 3.2203846 -1.7550199
0002f0 cb 76 b2 c0 f4 95 e9 3f c3 53 8e bf 9d e7 81 40
       -5.577001 1.8248887 -1.1119312 4.059523
000300 57 c5 5e c0 e9 47 00 40 ad f3 d1 40 d5 e4 82 41
       -3.4807947 2.004389 6.5609956 16.361734
000310 c2 2a 8f c0 04 d6 c1 3f 8f dc 1b bf 73 04 5c 40
       -4.4739695 1.5143437 -0.6088342 3.4377716
000320 fa 85 8a bf ba 88 97 3f 63 28 d5 3f f0 57 86 40
       -1.0822136 1.1838601 1.665295 4.1982346
000330 16 70 ec c0 63 36 88 bf 5c 59 35 41 6a f1 bd c1
       -7.3886824 -1.0641598 11.334316 -23.742878
000340 40 24 92 c0 62 34 01 41 46 53 87 3f d4 4f 95 c0
       -4.566925 8.075289 1.0572288 -4.6659946
000350 af dd 11 41 63 89 93 3e f3 68 5d c0 88 19 3d c1
       9.116622 0.28815755 -3.4595306 -11.818733
000360 1c ef bb 40 5e 59 df bf ae 61 07 c0 3a 73 74 c0
       5.872938 -1.7449148 -2.115337 -3.8195329
000370 c6 33 2a 40 b9 47 b8 bf 03 c0 34 c0 de ea a1 c1
       2.65941 -1.4396888 -2.8242195 -20.239681
000380 2b da aa 40 b1 31 90 40 d3 a0 c4 c0 dc db 2a 41
       5.339132 4.506066 -6.144632 10.678677
000390 3f 9c 10 41 ef 27 4e 41 bf 1c e9 40 47 e2 f4 bf
       9.038146 12.884749 7.284759 -1.9131554
0003a0 0d de 17 bf 70 37 d3 40 f9 6d 6e 3f 27 9c 56 40
       -0.593232 6.6005173 0.93136555 3.3532808
0003b0 bb 61 26 40 61 46 d7 40 54 da b4 bf 83 20 01 bf
       2.599715 6.727341 -1.4129128 -0.50440234
0003c0 e1 9d 1e 41 28 be cb c0 b4 da 94 c1 32 df 10 41
       9.913545 -6.3669624 -18.606789 9.054491
0003d0 82 24 3f 40 6b bc bd 40 70 76 4c c0 f2 ea 85 c0
       2.9866033 5.9292502 -3.1947289 -4.18493
0003e0 e6 b1 0b c1 94 79 40 40 82 91 8a 40 9e 72 0e c0
       -8.730932 3.0074205 4.330262 -2.2257457
0003f0 cd 69 87 40 be 27 c4 c1 eb c0 4b 3e 0d 3f b3 40
       4.231665 -24.519405 0.19897811 5.6014466

bias f4 [129]
000000 be 31 d7 c0 cb e6 4a 41 81 7a a3 c0 9b 5c 1f c0
       -6.724822 12.681346 -5.108704 -2.4900272
000010 86 11 2d 41 b0 b9 06 c2 1b b9 d4 41 0f 68 e7 41
       10.816778 -33.681335 26.590384 28.92581
000020 62 b7 11 c1 f5 7d 2b 41 68 15 be 41 9b 5d 86 c0
       -9.107271 10.718251 23.760452 -4.1989264
000030 10 f9 19 40 5b 6c 8b c0 2d f3 d1 be 79 bc e0 c1
       2.4058266 -4.356977 -0.4100584 -28.092028
000040 63 44 0b 41 b8 b3 4d c1 ac fd 50 c1 c3 ac 77 bf
       8.704196 -12.856377 -13.061932 -0.9674799
000050 25 26 8e c1 5a 9f 45 c1 d1 89 06 42 58 26 b7 c1
       -17.768625 -12.351404 33.634586 -22.893723
000060 13 ac 98 40 ca 3a b9 c1 70 0f d3 40 03 ca 2e c2
       4.771005 -23.153706 6.5956345 -43.697277
000070 6d be d4 41 87 8e 0e c1 47 1c 0a 3f 9a b8 85 c0
       26.592981 -8.909797 0.539494 -4.1787844
000080 17 8b d3 40 5a ae 9f 41 86 7d 74 41 68 a5 88 40
       6.6107287 19.960133 15.280645 4.270191
000090 bb 37 45 41 a3 0b 65 41 eb 5b d8 c0 e3 49 a8 c0
       12.326106 14.315341 -6.7612205 -5.2590194
0000a0 d9 7c e9 be 15 a6 c9 3f a9 cf fa c0 ce 50 41 c1
       -0.45603064 1.5753809 -7.837849 -12.082228
0000b0 f0 b4 d7 c1 cd 05 0d 42 17 45 1f c1 7d 9c 76 41
       -26.963348 35.255665 -9.954368 15.413205
0000c0 14 dc b3 41 34 93 ed c0 6e 19 a6 3e 3a 79 ca 40
       22.48246 -7.424219 0.32441276 6.327298
0000d0 0f d2 47 41 78 3b c9 c0 0f ad 91 41 a9 bf de c0
       12.488784 -6.2885094 18.209501 -6.960896
0000e0 d7 29 c8 40 2c d5 5a 41 5d 2a 83 40 70 0e e1 40
       6.2551074 13.677044 4.0989213 7.0330124
0000f0 e8 bd 45 3f 36 4e 7e 40 8c 3b 85 40 a1 af 57 c0
       0.772429 3.9735236 4.163519 -3.3700945
000100 04 a0 6c c0 90 d6 9a c0 17 d5 e3 c0 7b ea 24 c1
       -3.6972666 -4.8386917 -7.119762 -10.307246
000110 96 7d 51 c1 14 7f 9d c0 b7 8b 5f bf 2d 21 21 c2
       -13.093161 -4.9217625 -0.8732256 -40.2824
000120 38 2f a9 41 4e 0a 2e 40 cf 66 89 3e f1 29 c0 bf
       21.148056 2.719379 0.2683625 -1.50128
000130 fc 2f 86 41 f1 dc d9 40 5b c7 a1 41 0f 97 8c c0
       16.77343 6.8082204 20.222342 -4.39344
000140 99 f3 e1 41 30 8a 08 41 77 88 53 c1 1c 43 ae c1
       28.243944 8.533737 -13.220817 -21.782768
000150 9b 04 c7 41 49 8c 33 3e 3b 30 7b 40 7a ae c7 c0
       24.877249 0.17533983 3.9248188 -6.2400484
000160 e0 b6 ac c0 fd 38 ee 3f a0 52 11 3f 69 7f 04 41
       -5.3973236 1.8611141 0.567667 8.281106
000170 ea 86 06 40 ce bf 21 3e 87 d9 d1 c0 13 b3 8b c1
       2.1019845 0.15795824 -6.5578036 -17.462439
000180 38 b4 e0 40 5b a7 8d 40 19 e1 9e c0 ab b6 5e c1
       7.0219994 4.426679 -4.9649777 -13.919597
000190 be b3 dc bf 15 1a 60 c1 94 97 1a c2 19 40 99 40
       -1.7242353 -14.006368 -38.648026 4.7890744
0001a0 07 22 43 41 76 00 4f 40 3a 71 b4 40 1a 90 5f 40
       12.195807 3.2344031 5.6388216 3.4931703
0001b0 64 f7 84 41 b2 09 28 bf 9c f6 26 40 84 5c 44 41
       16.620796 -0.65639794 2.6088018 12.272587
0001c0 8b ad 91 bf 4a 07 93 40 a4 2b 2c 41 73 40 8c c1
       -1.1381086 4.59464 10.760654 -17.53147
0001d0 58 16 45 41 d1 ed b4 41 96 6e 57 c0 00 c5 4e c1
       12.317955 22.616121 -3.3661246 -12.923096
0001e0 05 c1 8e c1 08 8d fb c1 2f 67 52 c1 a4 dc b8 41
       -17.844248 -31.443863 -13.150191 23.107735
0001f0 6c aa c6 c1 52 41 15 41 ce 45 51 41 a3 8e 80 bf
       -24.833214 9.328447 13.079542 -1.0043529
000200 58 4f 82 be
       -0.2545116
